…
[INFO] Curriculum Manager:  <CurriculumManager> contains 0 active terms.
+----------------------+
| Active Curriculum Terms |
+-----------+----------+
|   Index   | Name     |
+-----------+----------+
+-----------+----------+

[INFO]: Completed setting up the environment...
[eval_motion debug] env created
[eval_motion debug] resume_path=/workspace/NaVILA-Bench/logs/rsl_rl/h1_vision_rough/2026-01-28_h1_vision_without_speedinput_exp_c_fixed03_exp_c_cmd03_seed42_dup1/model_2000.pt exists=True
[eval_motion debug] creating OnPolicyRunner
ActorCritic.__init__ got unexpected arguments, which will be ignored: ['history_length']
Actor MLP: Sequential(
  (0): Linear(in_features=1389, out_features=512, bias=True)
  (1): ELU(alpha=1.0)
  (2): Linear(in_features=512, out_features=256, bias=True)
  (3): ELU(alpha=1.0)
  (4): Linear(in_features=256, out_features=128, bias=True)
  (5): ELU(alpha=1.0)
  (6): Linear(in_features=128, out_features=19, bias=True)
)
Critic MLP: Sequential(
  (0): Linear(in_features=768, out_features=512, bias=True)
  (1): ELU(alpha=1.0)
  (2): Linear(in_features=512, out_features=256, bias=True)
  (3): ELU(alpha=1.0)
  (4): Linear(in_features=256, out_features=128, bias=True)
  (5): ELU(alpha=1.0)
  (6): Linear(in_features=128, out_features=1, bias=True)
)
Loading Base Policy from /workspace/NaVILA-Bench/logs/rsl_rl/h1_vision_rough/2024-11-03_15-08-09_height_scan_obst/model_4999_pad877_256.pt...
ActorCritic.__init__ got unexpected arguments, which will be ignored: ['history_length']
Actor MLP: Sequential(
  (0): Linear(in_features=877, out_features=512, bias=True)
  (1): ELU(alpha=1.0)
  (2): Linear(in_features=512, out_features=256, bias=True)
  (3): ELU(alpha=1.0)
  (4): Linear(in_features=256, out_features=128, bias=True)
  (5): ELU(alpha=1.0)
  (6): Linear(in_features=128, out_features=19, bias=True)
)
Critic MLP: Sequential(
  (0): Linear(in_features=768, out_features=512, bias=True)
  (1): ELU(alpha=1.0)
  (2): Linear(in_features=512, out_features=256, bias=True)
  (3): ELU(alpha=1.0)
  (4): Linear(in_features=256, out_features=128, bias=True)
  (5): ELU(alpha=1.0)
  (6): Linear(in_features=128, out_features=1, bias=True)
)
Base Policy Loaded with mismatched keys. Missing: ['critic.0.weight', 'critic.0.bias', 'critic.2.weight', 'critic.2.bias', 'critic.4.weight', 'critic.4.bias', 'critic.6.weight', 'critic.6.bias'], Unexpected: []
Unfreezing Base Policy Layer: actor.6 (Linear(in_features=128, out_features=19, bias=True))
[eval_motion debug] loading checkpoint
[eval_motion debug] checkpoint loaded
…
